Tinyssimo with WiderFace Dataset

Before View Dataset Examples
Removed wrong images: 0
Removed due to overlapping: 330
Removed due to more than 5: 0
Starting script

Device: cuda
Learning Rate: 0.0005
Batch Size: 64
IMG DIMS: (88, 88)
W: 88
H: 88
SX: 4
SY: 4
B: 2
C: 1

Confidence Threshold: 0.2
IOU mAP Threshold: 0.5
IOU NMS Threshold: 0.3

Using Tinyssimo 88x88
Model shape is torch.Size([4, 4, 4, 11])
Model Arquitecture
Tinyssimo_fixed_88x88_BatchNorm(
  (tiny_model): Sequential(
    (0): Conv2d(3, 16, kernel_size=(3, 3), stride=(1, 1), padding=same, bias=False)
    (1): BatchNorm2d(16, eps=1e-05, momentum=0.1, affine=True, track_running_stats=True)
    (2): ReLU()
    (3): Conv2d(16, 16, kernel_size=(3, 3), stride=(1, 1), padding=same, bias=False)
    (4): BatchNorm2d(16, eps=1e-05, momentum=0.1, affine=True, track_running_stats=True)
    (5): ReLU()
    (6): MaxPool2d(kernel_size=2, stride=2, padding=0, dilation=1, ceil_mode=False)
    (7): Conv2d(16, 16, kernel_size=(3, 3), stride=(1, 1), padding=same, bias=False)
    (8): BatchNorm2d(16, eps=1e-05, momentum=0.1, affine=True, track_running_stats=True)
    (9): ReLU()
    (10): Conv2d(16, 32, kernel_size=(3, 3), stride=(1, 1), padding=same, bias=False)
    (11): BatchNorm2d(32, eps=1e-05, momentum=0.1, affine=True, track_running_stats=True)
    (12): ReLU()
    (13): MaxPool2d(kernel_size=2, stride=2, padding=0, dilation=1, ceil_mode=False)
    (14): Conv2d(32, 32, kernel_size=(3, 3), stride=(1, 1), padding=same, bias=False)
    (15): BatchNorm2d(32, eps=1e-05, momentum=0.1, affine=True, track_running_stats=True)
    (16): ReLU()
    (17): Conv2d(32, 64, kernel_size=(3, 3), stride=(1, 1), padding=same, bias=False)
    (18): BatchNorm2d(64, eps=1e-05, momentum=0.1, affine=True, track_running_stats=True)
    (19): ReLU()
    (20): MaxPool2d(kernel_size=2, stride=2, padding=0, dilation=1, ceil_mode=False)
    (21): Conv2d(64, 64, kernel_size=(3, 3), stride=(1, 1), padding=same, bias=False)
    (22): BatchNorm2d(64, eps=1e-05, momentum=0.1, affine=True, track_running_stats=True)
    (23): ReLU()
    (24): Conv2d(64, 64, kernel_size=(3, 3), stride=(1, 1), padding=same, bias=False)
    (25): BatchNorm2d(64, eps=1e-05, momentum=0.1, affine=True, track_running_stats=True)
    (26): ReLU()
    (27): MaxPool2d(kernel_size=2, stride=2, padding=0, dilation=1, ceil_mode=False)
    (28): Conv2d(64, 128, kernel_size=(3, 3), stride=(1, 1), padding=same, bias=False)
    (29): BatchNorm2d(128, eps=1e-05, momentum=0.1, affine=True, track_running_stats=True)
    (30): ReLU()
    (31): Conv2d(128, 128, kernel_size=(3, 3), stride=(1, 1), padding=same, bias=False)
    (32): BatchNorm2d(128, eps=1e-05, momentum=0.1, affine=True, track_running_stats=True)
    (33): ReLU()
    (34): MaxPool2d(kernel_size=2, stride=2, padding=0, dilation=1, ceil_mode=False)
    (35): Flatten(start_dim=1, end_dim=-1)
    (36): Linear(in_features=512, out_features=256, bias=True)
    (37): ReLU()
    (38): Dropout(p=0.8, inplace=False)
    (39): Linear(in_features=256, out_features=176, bias=True)
  )
)

Trainable parameters = 509888
Total parameters = 509888

Using YoloLossMSE_2BBox

TRAIN WiderFace dataset
Removed wrong images: 0
Removed due to overlapping: 1175
Removed due to more than 5: 0
Train dataset len: 7260

TEST WiderFace dataset
Removed wrong images: 0
Removed due to overlapping: 330
Removed due to more than 5: 0
Test dataset len: 1773
…
